7. Natural Language Processing/Chatbot/trained.pth (torch, 6359 bytes, 6 tensors)

l1.weight f4 [8, 84]
0	0x3eb7c4b5	0.35892263
1	0xbde0faf9	-0.10985369
2	0xbdd7f0f9	-0.10544009
3	0x3ec60f7e	0.38683695
4	0xbdb5d2d6	-0.088781044
5	0x3c445fe8	0.011985756
6	0x3ed78884	0.4209634
7	0xbe6c9d41	-0.23106863
8	0x3c67d82a	0.014150659
9	0x3ee911dc	0.45521438
10	0x3e9d25c8	0.30692887
11	0x3ec9e2ae	0.39430755
12	0x3f1854f8	0.5950465
13	0x3f0203f2	0.5078727
14	0x3eeb40e7	0.45947954
15	0x3ea15afd	0.3151473
16	0xbcf60a12	-0.030034099
17	0xbe875392	-0.26430947
18	0xbe7b3dff	-0.24535368
19	0x3f03d6fc	0.51499915
20	0x3f00c208	0.5029607
21	0xbef570c7	-0.47937605
22	0x3ee40a32	0.44539028
23	0xbecf1055	-0.40442148
24	0xbe6b8d54	-0.23003131
25	0x3ed803ef	0.421905
26	0x3c527034	0.012844134
27	0x3eb3c20c	0.35108984
28	0xbeafbd9d	-0.3432435
29	0xbe7998da	-0.24374714
30	0x3f1db9db	0.6161172
31	0x3f1acc83	0.6046831
32	0xbe1fe108	-0.15613186
33	0xbe81115e	-0.25208563
34	0x3f1eb258	0.6199088
35	0x3db3f589	0.087870665
36	0x3edd4529	0.43216828
37	0x3f23b8d9	0.6395393
38	0x3dec02e4	0.11523989
39	0xbd2cc0a5	-0.042175908
40	0x3eb993b4	0.362455
41	0xbea44e85	-0.32091156
42	0x3ee6e9d7	0.4510028
43	0x3eba9152	0.36438996
44	0xbe3e3e98	-0.18578565
45	0xbddbb777	-0.107283525
46	0x3eec66eb	0.4617227
47	0x3ecbe90b	0.39826235
48	0x3ea43e8a	0.32078964
49	0x3ea603ba	0.32424718
50	0xbed25b0a	-0.41085082
51	0x3e9d2522	0.30692393
52	0x3ecc8cec	0.39951265
53	0x3ea685bb	0.32523903
54	0xbdc159fb	-0.094409905
55	0xbeaa4730	-0.33257437
56	0x3ea98242	0.3310719
57	0xbe63412b	-0.22192828
58	0xbeac33eb	-0.3363336
59	0x3e604aa6	0.21903476
60	0x3db24e2e	0.08706318
61	0x3eddce8e	0.4332165
62	0x3eaa4499	0.3325546
63	0xbee1f0b3	-0.4412895
64	0xbe5bb887	-0.2145711
65	0x3f0275cb	0.5096099
66	0xbef56882	-0.47931296
67	0x3d4b1c42	0.049587496
68	0x3d1c89d6	0.038217388
69	0x3c3ed6e0	0.01164791
70	0x3e456de4	0.19280201
71	0x3f0edd38	0.55806303
72	0xbd661465	-0.056171793
73	0x3e1e8881	0.1548176
74	0x3e7d9c28	0.247666
75	0xbe37a0f6	-0.17932495
76	0x3c9fe740	0.019519448
77	0xbed6091e	-0.4180383
78	0xbe0883b9	-0.13331498
79	0xbecd0109	-0.40039852
80	0xbeb910ec	-0.36145723
81	0xbc1ac55f	-0.009446471
82	0x3f12e9c2	0.57387936
83	0x3f0164cd	0.50544435
84	0xbe2e5e1f	-0.17028092
85	0xbe0ef01c	-0.13958782
86	0xbe101872	-0.14071825
87	0x3ee9821a	0.45607072
88	0x3f3baf60	0.73314476
89	0x3edfcf1d	0.43712702
90	0xbece76bc	-0.40324962
91	0x3ef20f74	0.47277415
92	0x3f031e70	0.5121832
93	0xbe44c9ad	-0.19217558
94	0xbe23b737	-0.1598786
95	0xbf0646c1	-0.5245171
96	0x3f2d774a	0.67760146
97	0xbecfc256	-0.40577954
98	0xbf0e73a8	-0.5564523
99	0xbea93f5a	-0.33056146
100	0x3e9d8b1f	0.30770203
101	0x3dcffcf8	0.10155672
102	0xbddc0dda	-0.107448295
103	0xbed472b6	-0.41493767
104	0xbe67e4d1	-0.2264588
105	0x3eb641ea	0.35597163
106	0xbe48195d	-0.19540925
107	0x3f01ed83	0.5075304
108	0x3f0766a2	0.5289098
109	0xbe6271dd	-0.22113748
110	0x3ef7ed50	0.48423243
111	0xbd4bb3e8	-0.04973212
112	0xbd5b7278	-0.053575963
113	0x3f43a6ed	0.76426584
114	0xbec462ec	-0.3835672
115	0x3f2af63a	0.6678196
116	0xbd6e0e63	-0.05811919
117	0x3eb5072b	0.3535703
118	0xbf1879a4	-0.5956061
119	0x3eca349d	0.39493266
120	0xbf1aa164	-0.6040251
121	0xbf3dc37f	-0.7412643
122	0x3e7a513c	0.24445051
123	0xbe86ccd2	-0.2632814
124	0x3ef1734a	0.4715827
125	0x3ed6f1f4	0.4198147
126	0xbe8aacf5	-0.2708508
127	0x3e2b198f	0.16708969
128	0x3f152204	0.5825503
129	0xbda1f9c7	-0.07908969
130	0x3f053604	0.52035546
131	0x3e20dbef	0.15708898
132	0x3ddfb5f1	0.109233744
133	0xbe7f3c6b	-0.24925391
134	0x3f01944c	0.5061691
135	0x3eb11ecd	0.34593812
136	0xbedc45d1	-0.43022016
137	0x3f0757a0	0.5286808
138	0x3f0e7fea	0.5566393
139	0x3e079216	0.13239321
140	0xbe574bed	-0.21025057
141	0xbdac7648	-0.08420998
142	0x3f2ffe04	0.6874697
143	0xbde572a0	-0.112035036
144	0x3e6244d4	0.22096568
145	0xbe958966	-0.2920639
146	0xbd703d14	-0.058652
147	0x3ec2284c	0.3792137
148	0x3f3d7767	0.7401032
149	0x3f0a26e6	0.53965604
150	0x3ed5662b	0.4167951
151	0x3f0136af	0.50474066
152	0xbccda115	-0.025101224
153	0x3efa6de7	0.48911974
154	0x3e0d4b94	0.13798362
155	0x3d9c683a	0.07637067
156	0x3f576bd1	0.8414889
157	0x3f028dc6	0.5099758
158	0xbe96b1f3	-0.2943264
159	0x3f10f72d	0.5662716
160	0x3f049cb0	0.51801586
161	0x3f496998	0.7867675
162	0xbdede560	-0.116160154
163	0x3d16d854	0.0368274
164	0x3e026d0b	0.12736909
165	0xbc6f882e	-0.01461987
166	0xbea5fefa	-0.32421094
167	0x3e175b53	0.14780931
168	0x3f018dbe	0.50606906
169	0x3f16d479	0.5891796
170	0x3f2ff660	0.68735313
171	0xbe91bfe2	-0.28466707
172	0xbe77af4f	-0.24187969
173	0x3e2a2c6e	0.16618511
174	0xbd9ca259	-0.07648153
175	0xbe58311c	-0.21112484
176	0x3dd64688	0.104626715
177	0x3eb08ddb	0.34483227
178	0x3d6d1bea	0.05788795
179	0x3ef331c5	0.4749891
180	0x3e9443eb	0.28958067
181	0x3f03fc3c	0.51556754
182	0xbd3f38ff	-0.046685215
183	0xbe24cc22	-0.16093495
184	0x3ee59af1	0.44844773
185	0x3f0fbd3e	0.56148136
186	0x3ed8f133	0.4237152
187	0xbe0cbc26	-0.13743648
188	0x3eb08e0a	0.34483367
189	0xbd115b6c	-0.035487577
190	0x3eb28e58	0.34874225
191	0x3ce23218	0.027611777
192	0x3b755ab2	0.0037438092
193	0x3edca575	0.43094984
194	0xbe95d386	-0.29262942
195	0x3d1dc619	0.038519
196	0xbe08e015	-0.1336673
197	0xbe063fe6	-0.13110313
198	0x3f1c1f60	0.60985374
199	0x3e840ebb	0.25792488
200	0x3eec7e06	0.46189898
201	0x3f0a489e	0.54017055
202	0x3eeed0a6	0.4664356
203	0xbdb773bc	-0.089576215
204	0x3f14f7ef	0.58190817
205	0x3f18d0fe	0.59693897
206	0x3f0b2647	0.5435528
207	0x3f316a76	0.6930307
208	0x3ec4d29f	0.3844194
209	0xbdd8068e	-0.10548125
210	0x3e98921f	0.29798982
211	0xbdcd5068	-0.10025102
212	0x3d27d5e2	0.04097546
213	0x3ee09982	0.43867117
214	0x3e9c9097	0.30579063
215	0xbda7843a	-0.08179517
216	0xbde1caa2	-0.11024977
217	0x3f059ef4	0.5219567
218	0x3d1eaa7f	0.038736816
219	0xbdb017c4	-0.08598283
220	0xbe095333	-0.13410644
221	0xbd80a3ee	-0.06281267
222	0x3e9068b8	0.28204894
223	0xbe3dffa1	-0.18554546
224	0x3ed91391	0.4239774
225	0x3ec42eba	0.383169
226	0xbe76a467	-0.24086152
227	0xbde4a4d2	-0.111642495
228	0x3ef4af18	0.47789836
229	0xbdb0ce03	-0.086330436
230	0x3c42b17b	0.011883135
231	0xbccedb37	-0.025251014
232	0x3e038074	0.1284197
233	0x3eb3ae2f	0.3509383
234	0xbc94dec9	-0.018172638
235	0xbc3cbf72	-0.0115202535
236	0x3f252832	0.6451446
237	0xbc0d3c8d	-0.008620393
238	0x3db92a82	0.09041311
239	0xbe2d063f	-0.16896914
240	0xbf29dde2	-0.6635419
241	0xbe941e4d	-0.28929368
242	0x3f05b6d0	0.52232075
243	0x3e9b2b10	0.30306292
244	0x3e823765	0.25432888
245	0xbf183392	-0.5945369
246	0x3f0cd27d	0.5500868
247	0x3f35235a	0.7075707
248	0xbe35da59	-0.17759074
249	0x3f14cebe	0.58127964
250	0xbe62905f	-0.22125386
251	0x3887af8e	6.470001e-05
252	0x3d430d16	0.0476199
253	0xbd9b0196	-0.07568662
254	0xbcfa10ce	-0.030525591
255	0xbe4c005f	-0.19922017

l1.bias f4 [8]
0	0x3f7c8a23	0.9864828
1	0x3f618b7d	0.8810347
2	0x3f29ddce	0.6635407
3	0x3f2bfbbc	0.6718099
4	0x3f79896d	0.9747532
5	0x3f316a9b	0.6930329
6	0x3ee499dd	0.44648638
7	0x3f189c24	0.5961325

l2.weight f4 [8, 8]
0	0x3df2bddd	0.1185262
1	0x3fc31e66	1.5243652
2	0xbf53ac3b	-0.8268468
3	0xbea8a484	-0.32938015
4	0x3f9d7399	1.2300903
5	0xbf5db83b	-0.8660924
6	0x3f939e51	1.1532689
7	0x3e153ce7	0.14574014
8	0xbe20c030	-0.15698314
9	0xbdd761f5	-0.10516731
10	0x3f92d541	1.147133
11	0x3fa19725	1.2624251
12	0xbde4fb06	-0.111806914
13	0x3df47864	0.11937025
14	0x3f6d9fa1	0.928217
15	0x3cc607ec	0.0241737
16	0x3f880901	1.0627748
17	0x3f1b850a	0.60749876
18	0x3f4a14ce	0.78937995
19	0xbf5e36d0	-0.8680239
20	0x3e14074e	0.14455912
21	0x3e2610ab	0.16217296
22	0xbe6ad62c	-0.22933263
23	0xbf4921f1	-0.78567415
24	0x3f7cf8d5	0.9881719
25	0xbefeb53f	-0.49747655
26	0xbe8ede72	-0.27904087
27	0x3f514c46	0.8175701
28	0xbdda06d2	-0.10645832
29	0xbe99ac60	-0.30014324
30	0xbec1f51c	-0.37882316
31	0x3fa80fbd	1.3129803
32	0x3ee2d584	0.44303524
33	0x3eda7ae3	0.4267188
34	0x3f0a29e7	0.5397019
35	0x3ec037eb	0.37542662
36	0x3e335519	0.17512931
37	0x3fac9cc1	1.3485337
38	0xbfb6868f	-1.4259814
39	0xbf00607b	-0.5014722
40	0x3f66a7cb	0.9009978
41	0xbf05497b	-0.5206525
42	0x3f906d98	1.1283445
43	0x3f05f627	0.52328724
44	0xbec821b0	-0.39088202
45	0x3f8aeb50	1.0853062
46	0xbea9325c	-0.33046234
47	0x3eb171c1	0.346571
48	0x3f31e5bf	0.6949119
49	0x3d0a1f0c	0.033721015
50	0xbeb00723	-0.34380445
51	0x3f6320f0	0.88722134
52	0x3fa7f4ab	1.3121542
53	0x3eb6cbb7	0.35702297
54	0xbf226ced	-0.6344746
55	0x3f7306f4	0.94932485
56	0x3f824ac5	1.0179068
57	0xbf426454	-0.7593434
58	0x3de3755d	0.1110637
59	0xbf17912a	-0.5920588
60	0xbec40680	-0.3828621
61	0xbf2b6e62	-0.66965306
62	0xbe76f8ae	-0.24118301
63	0x3e1f2ca1	0.15544368

l2.bias f4 [8]
0	0x3f20bad0	0.62785053
1	0xbd3a88e8	-0.04554072
2	0x3f496bec	0.786803
3	0x3d24c938	0.04023096
4	0xbb4d06d4	-0.0031284587
5	0x3e9da5dd	0.30790606
6	0x3e859c70	0.26095915
7	0x3eb6dcb7	0.35715267

l3.weight f4 [8, 8]
0	0x3e5b9a24	0.21445519
1	0x3f312b94	0.6920712
2	0xbfd7c5ad	-1.6857201
3	0xbfe63688	-1.7985392
4	0xbea489b5	-0.32136312
5	0xbf958f23	-1.1684307
6	0x3d9cd733	0.076582335
7	0xbe9b630a	-0.30348998
8	0xbf2a06b9	-0.6641651
9	0x3f57806d	0.8418034
10	0x3f0b5167	0.54421085
11	0xbfadc618	-1.3576078
12	0xbf569317	-0.8381819
13	0x3f030c6b	0.51190823
14	0xbf9babe8	-1.2161837
15	0xbf99cc11	-1.2015401
16	0xbea434fe	-0.3207168
17	0xbf98ab37	-1.1927251
18	0x3f37f726	0.71861494
19	0xbfc22c0c	-1.5169692
20	0x3f9ebc2a	1.2401173
21	0xbe6cf9b0	-0.23142123
22	0x3c2c4368	0.010514118
23	0xbf8cdb66	-1.1004455
24	0xbfbef7f1	-1.4919416
25	0xbe29a15d	-0.16565461
26	0xbf5d7d90	-0.8651972
27	0xbbab56e4	-0.005228864
28	0x3f4d25a4	0.8013556
29	0x3ec9b34c	0.39394605
30	0x3eff7c72	0.49899632
31	0xbf96bc94	-1.17763
32	0xbf02306e	-0.5085515
33	0x3ca100b7	0.019653661
34	0xbfc82012	-1.5634787
35	0x3e69dd46	0.22838315
36	0xbfaeac13	-1.3646263
37	0x3cb19abb	0.021680227
38	0x3f13c1ea	0.57717764
39	0xbebe7c5d	-0.37204257
40	0x3f39b314	0.72538877
41	0xbe6b9ebd	-0.23009773
42	0x3c0a01b9	0.008423262
43	0xbfb4808f	-1.4101733
44	0xbf8bfd58	-1.0936689
45	0xbf7df167	-0.99196476
46	0xbfc73a5e	-1.5564687
47	0xbef51636	-0.47868508
48	0xbf846297	-1.0342587
49	0xbf1e67ed	-0.6187733
50	0x3f02997b	0.5101544
51	0x3e87e6bf	0.26543233
52	0xbf327743	-0.6971323
53	0x3e5d8469	0.21632542
54	0xbf07758a	-0.52913725
55	0x3f850b72	1.0394118
56	0x3eb15d6b	0.34641585
57	0xbfc2eb16	-1.5227993
58	0xbe3e6169	-0.18591847
59	0xbef425d9	-0.47685125
60	0xbf334f87	-0.70043224
61	0xbfa567d2	-1.2922308
62	0x3f044e84	0.51682305
63	0xbf47763f	-0.77914804

l3.bias f4 [8]
0	0xbec9cd09	-0.39414242
1	0x3e740fcd	0.23834153
2	0xbedc808b	-0.4306682
3	0x3e46c80f	0.19412254
4	0xbeda88bf	-0.42682454
5	0x3e6badd5	0.2301553
6	0xbf0147b8	-0.5050006
7	0xbcdd16b0	-0.026988357
