7. Natural Language Processing/RNN/data/RNN.pth (torch, 200343 bytes, 6 tensors)

i2h.weight f4 [128, 205]
-0.1244143 0.06867319 0.16559643 -0.074757785 -0.0028050255 -0.023889111 0.27023563 -0.19714375
-0.012860266 -0.19076851 0.0798688 0.014488852 -0.261472 -0.016854582 -0.0019838829 0.13096024
0.03582983 -0.048999954 -0.09033597 -0.011930909 0.23942098 0.059043735 0.030008966 0.046545897
0.14527728 0.040579986 -0.190575 -0.034937523 -0.012451211 -0.27869296 -0.031835563 -0.12525684
0.039218508 0.06486672 0.0111293625 -0.09115125 0.055798765 0.037706006 -0.10630437 0.07219622
0.12748444 -0.041621346 -0.017280092 0.007843492 -0.13115747 -0.02917227 0.13958752 -0.07981976
0.008398511 0.042838775 -0.03818395 0.016558139 -0.07113101 -0.026697457 -0.025525888 -0.061362725
0.04971711 -0.0029455686 0.15381595 0.032404684 -0.068252236 -0.115008235 0.09129043 0.004496543
0.06650516 -0.019384595 0.033098586 0.0059031383 -0.039010387 0.084085174 0.07608702 -0.00095391105
-0.0077223834 0.022268288 0.057808585 -0.004796979 -0.055696588 0.04477388 0.004408132 -0.09494972
-0.056285273 -0.047217626 0.08722611 0.04470389 0.088676326 0.041448653 -0.043353647 -0.07737982
-0.08935665 0.027623363 0.05485485 -0.0059450516 0.030848034 -0.027783608 -0.024971884 0.004222074
0.03275295 0.038175445 -0.03169725 0.059230216 -0.047518734 -0.044031397 -0.10334215 -0.057615586
-0.038721208 -0.057089522 0.03372603 0.025286509 -0.07393423 0.034383442 -0.059502535 -0.013280829
0.043360557 -0.020779578 0.005122016 -0.04102673 0.046968587 -0.06856884 -0.007519234 -0.029746778
-0.04694849 0.0062436075 -0.04480877 0.0018132774 0.042905077 0.015424729 -0.04168468 -0.0075348
0.01432647 -0.012668851 0.05365266 0.06982735 -0.02882448 -0.052442376 -0.021952473 -0.015750779
-0.0015657976 -0.00474039 -0.018063406 0.022329379 0.07949007 0.05006967 -0.031462662 -0.0008481241
-0.021195715 -0.061182052 0.012476001 -0.037705105 -0.007593924 -0.035667352 -0.025974153 0.022824178
-0.020181315 -0.08970202 -0.05057991 0.059475306 0.007493844 0.040203527 -0.04210275 0.022349924
0.006317594 -0.05903693 -0.034187064 0.030955836 -0.07028981 0.019065639 0.016261205 0.012760779
0.016825007 -0.02783256 -0.02973764 -0.029859053 0.028653214 -0.07179491 -0.025700567 0.055747073
0.027873402 -0.016212977 -0.07757967 -0.0138782 0.016351439 -0.027852558 0.056633953 0.009649003
0.014477233 -0.06407416 -0.006407636 -0.011619845 -0.04074561 0.028246075 0.0640306 0.009084294
0.07728005 0.058967073 -0.006119757 0.03173107 0.05257081 -0.072097234 -0.032030143 -0.02460502
0.06868776 0.04556801 0.077591635 -0.013911732 0.03863511 -0.008364073 0.103075966 0.002681374
0.024521334 0.013815804 -0.0315029 0.065853335 0.11268384 -0.15049805 0.17828172 -0.23443145
-0.054559663 0.21685307 0.029287891 -0.14400263 0.059156545 -0.07149241 0.030496007 -0.09701705
0.15231352 0.14715259 -0.025977714 -0.08889833 0.08772384 0.15347524 0.030361822 -0.16881453
-0.008528192 0.20122391 -0.17028469 0.0069216946 0.014697495 0.088575594 -0.032040194 0.06193098
-0.09607353 -0.058334514 -0.050037485 -0.082847066 -0.07870009 -0.053495333 0.034950078 -0.024656232
0.09296331 -0.15654247 0.024449062 0.2240794 -0.024268104 -0.1215888 0.13989536 0.005931059
00000000: edcc febd 88a4 8c3d 1c92 293e 9c1a 99bd
00000010: 85d4 37bb 19b3 c3bc 535c 8a3e 0de0 49be
00000020: ddb3 52bc d258 43be 4192 a33d a662 6d3c
00000030: a8df 85be 9f12 8abc 0804 02bb 711a 063e
00000040: 4dc2 123d 2db4 48bd 1102 b9bd dc79 43bc
00000050: c62a 753e d8d7 713d 5dd5 f53c e9a6 3e3d
00000060: 91c3 143e 3337 263d 1826 43be a61a 0fbd
00000070: 2a00 4cbc d8b0 8ebe 0266 02bd 5443 00be
00000080: 96a3 203d d8d8 843d ee57 363c 82ad babd
00000090: 3f8d 643d 9d71 1a3d 1bb6 d9bd 9ddb 933d
000000a0: 488b 023e 257b 2abd fb8e 8dbc fd81 003c
000000b0: 254e 06be affa eebc 08f0 0e3e 8b78 a3bd
000000c0: e999 093c b677 2f3d c666 1cbd efa4 873c
000000d0: 23ad 91bd a0b4 dabc ab1b d1bc 7b57 7bbd
000000e0: 2ba4 4b3d 710a 41bb ee81 1d3e c6ba 043d
000000f0: d4c7 8bbd 7089 ebbd 7af6 ba3d bd57 933b
00000100: db33 883d 71cc 9ebc 6292 073d 1d6f c13b
00000110: 5bc9 1fbd d934 ac3d 83d3 9b3d e30f 7aba
00000120: 0c0c fdbb fc6b b63c b2c8 6c3d fa2f 9dbb
00000130: 1b22 64bd d164 373d 1772 903b 0075 c2bd
00000140: 638b 66bd 4567 41bd 9aa3 b23d 6d1b 373d
00000150: ef9b b53d 10c6 293d 9893 31bd 5079 9ebd
00000160: 9f00 b7bd 644a e23c 7baf 603d b5ce c2bb
00000170: 04b5 fc3c 739a e3bc d691 ccbc 5359 8a3b
00000180: f527 063d db5d 1c3d fad4 01bd 629b 723d
00000190: 01a3 42bd 445a 34bd 0da5 d3bd 52fe 6bbd
000001a0: 219a 1ebd b4d6 69bd 4e24 0a3d a725 cf3c
000001b0: d46a 97bd a7d5 0c3d eeb8 73bd d697 59bc
000001c0: d79a 313d ef39 aabc 96d6 a73b a50b 28bd
000001d0: 2262 403d d26d 8cbd e863 f6bb 84af f3bc
000001e0: 0f4d 40bd 2d97 cc3b 6789 37bd 7eab ed3a
000001f0: 3cbd 2f3d 01b8 7c3c 8ebd 2abd 7ce6 f6bb
00000200: 92b9 6a3c 0391 4fbc e4c2 5b3d a401 8f3d
00000210: 5121 ecbc d1cd 56bd acd5 b3bc c707 81bc
00000220: 733b cdba 4655 9bbb b5f9 93bc 1aec b63c
00000230: b1cb a23d db15 4d3d fede 00bd a554 5eba
00000240: a3a2 adbc 089a 7abd 2468 4c3c ab70 1abd
00000250: 74d6 f8bb ee17 12bd bfc7 d4bc c5f9 ba3c
00000260: 4953 a5bc b1b5 b7bd e12c 4fbd 619c 733d
00000270: eb8e f53b 74ac 243d ef73 2cbd 3017 b73c
00000280: d203 cf3b b5d0 71bd bc07 0cbd 1897 fd3c
00000290: 1bf4 8fbd 8b2f 9c3c 3836 853c 9612 513c
000002a0: 99d4 893c 1c01 e4bc 5a9c f3bc f99a f4bc
000002b0: 25ba ea3c 3609 93bd ff89 d2bc 0b57 643d
000002c0: c356 e43c 14d1 84bc 17e2 9ebd 6461 63bc
000002d0: 74f3 853c 0c2b e4bc 01f9 673d da16 1e3c
000002e0: eb31 6d3c 5039 83bd 26f7 d1bb 2a61 3ebc
000002f0: dee4 26bd 5064 e73c 7a22 833d 4ad6 143c
00000300: 0145 9e3d 7587 713d 3e88 c8bb 70f8 013d
00000310: 7d54 573d b7a7 93bd 0a32 03bd 7890 c9bc
00000320: 2bac 8c3d 86a5 3a3d 5de8 9e3d 08ee 63bc
00000330: d93f 1e3d 7709 09bc 7e19 d33d feb9 2f3b
00000340: f7e0 c83c af5b 623c 2f09 01bd 1dde 863d
00000350: c9c6 e63d 291c 1abe 7c8f 363e cc0e 70be
00000360: f479 5fbd bb0e 5e3e 29ed ef3c 6d75 13be
00000370: 224e 723d 9d6a 92bd c3d2 f93c e0b0 c6bd
00000380: 13f8 1b3e 2baf 163e 37cf d4bc 5410 b6bd
00000390: 8ea8 b33d 9d28 1d3e 5bb9 f83c b7dd 2cbe
000003a0: d4b9 0bbc a40d 4e3e 1c5f 2ebe 62cf e23b
000003b0: c3cd 703c 1f67 b53d 943c 03bd 57ab 7d3d
000003c0: 33c2 c4bd 2cf0 6ebd 1bf4 4cbd b9ab a9bd
000003d0: 832d a1bd ec1d 5bbd d027 0f3d defb c9bc
000003e0: 8c63 be3d ab4c 20be 6649 c83c 1275 653e
000003f0: e7cd c6bc 8c03 f9bd bb40 0f3e 5459 c23b

i2h.bias f4 [128]
-0.105733216 0.19592829 0.026567422 0.07701364 -0.44741577 -0.24162863 0.1675703 -0.32421693
0.19557948 0.2600295 -0.097989835 0.23098186 0.016834714 0.11773981 -0.13189958 0.017215446
0.023984201 0.11137445 0.019475462 0.34350955 0.2486029 0.06152938 -0.103193 0.27134702
0.22020675 0.22308874 -0.072166115 0.34611502 -0.21117388 0.41139576 -0.095654406 0.35535246
0.11486513 0.14888117 -0.28191662 -0.10568288 0.015340161 -0.4608159 0.13349834 -0.09153429
0.033501375 -0.011134872 0.025782675 -0.17206839 -0.010300382 0.022708854 0.19778079 -0.10345788
0.026929323 -0.07357806 -0.034686476 0.023349125 0.1277826 -0.3218908 -0.13533448 -0.20567328
0.18348633 0.4736041 0.22731711 0.41671848 -0.20353058 0.17313004 0.12780932 0.081931755
-0.21607724 0.06563749 -0.21928196 0.278489 0.1575939 0.1828589 -0.07889514 -0.24058393
-0.121135265 -0.12352213 -0.023469387 -0.21975917 0.123977296 -0.31881323 0.26713046 -0.16510583
-0.18186806 -0.21828903 -0.04188917 0.27954426 0.21918036 0.40893897 0.13065739 0.17076346
0.08269362 -0.18628453 0.18244095 -0.12267436 -0.10632241 -0.25869855 -0.2616856 0.12768067
0.05980274 0.48853353 -0.06755532 0.042224765 0.17236416 -0.02983784 -0.088629045 0.110395074
-0.15699239 -0.024451338 -0.0074801953 0.026550557 -0.16318285 -0.045520797 -0.3177679 -0.12234291
0.118466236 -0.18437715 0.12098188 -0.3759617 0.1286239 -0.124325424 0.03948163 0.1648905
-0.071577765 -0.09043634 0.029660268 0.18184265 0.0038062385 0.052320182 -0.2784126 0.06662996
00000000: a88a d8bd 6da1 483e eca3 d93c 54b9 9d3d
00000010: ae13 e5be 7f6d 77be 8c97 2b3e c3ff a5be
00000020: fd45 483e 9622 853e e5ae c8bd 8286 6c3e
00000030: f4e8 893c 9221 f13d af10 07be 6807 8d3c
00000040: 847a c43c 4a18 e43d 018b 9f3c 7ce0 af3e
00000050: c291 7e3e 3b06 7c3d da56 d3bd ffed 8a3e
00000060: e17d 613e 6071 643e d4cb 93bd fd35 b13e
00000070: f73d 58be 77a2 d23e 75e6 c3bd c2f0 b53e
00000080: 693e eb3d 4e74 183e 6057 90be 4470 d8bd
00000090: 4c55 7b3c 10f0 ebbe cab3 083e 5476 bbbd
000000a0: bd38 093d 0a6f 36bc 3036 d33c b232 30be
000000b0: efc2 28bc eb07 ba3c 0c87 4a3e bae1 d3bd
000000c0: e29a dc3c 18b0 96bd 6813 0ebd aa46 bf3c
000000d0: 71d9 023e dfce a4be 1f95 0abe 049c 52be
000000e0: d7e3 3b3e 3d7c f23e d1c5 683e 205c d53e
000000f0: 526a 50be 0049 313e 72e0 023e d6cb a73d
00000100: 5a43 5dbe f36c 863d 738b 60be 1c96 8e3e
00000110: 4c60 213e 5d3f 3b3e c693 a1bd a25b 76be
00000120: c415 f8bd 2cf9 fcbd df42 c0bc 8c08 61be
00000130: cfe7 fd3d 7d3b a3be 53c5 883e 8111 29be
00000140: 9f3b 3abe 2987 5fbe fa93 2bbd 6d20 8f3e
00000150: d170 603e 7360 d13e 0dcb 053e 9edc 2e3e
00000160: 465b a93d 5fc1 3ebe cdd1 3a3e b23c fbbd
00000170: 90bf d9bd 2374 84be a8fb 85be b9be 023e
00000180: b8f3 743d 1121 fa3e 725a 8abd e0f3 2c3d
00000190: 3b80 303e 7c6e f4bc 2583 b5bd d016 e23d
000001a0: 9dc2 20be 2c4e c8bc 6d1c f5bb 8e80 d93c
000001b0: 6819 27be 0474 3abd 79b2 a2be eb8e fabd
000001c0: 6d9e f23d 5dcd 3cbe 59c5 f73d 0d7e c0be
000001d0: fcb5 033e 549e febd 7db7 213d 0ed9 283e
000001e0: 5d97 92bd b036 b9bd 17fa f23c f634 3a3e
000001f0: 1672 793b b04d 563d 198c 8ebe 4a75 883d

i2o.weight f4 [59, 205]
-0.03915625 0.037229754 -0.07628899 0.0071410825 0.02087051 0.033182748 0.056231312 0.11760698
-0.07045252 0.16711816 0.043668274 -0.019210415 0.04373058 -0.053102873 -0.008314247 0.0037821087
-0.06794381 0.08753492 -0.031795856 -0.04426778 0.25383627 0.105020404 -0.07117091 -0.01830282
0.13651432 -0.027577799 -0.033352025 -0.02945757 0.069549344 -0.015494015 -0.07224068 0.028311582
-0.08713696 0.007228922 0.010281493 -0.14600238 0.19797349 0.030888904 -0.06337182 -0.0050829942
-0.07897665 0.0027706302 0.12676992 0.025562208 -0.05211492 0.06208493 0.1569781 -0.015343859
-0.054983646 0.024411248 0.011417176 -0.0045111626 -0.006921158 0.007968973 -0.010807363 -0.022298275
0.038203992 -0.02096395 -0.14393091 0.029928243 -0.013127511 -0.007931866 0.06178702 -0.018990334
-0.026874257 0.01799269 -0.03208156 -0.06956016 0.027420603 0.08304986 0.03113676 -0.06831481
0.03574987 0.06749867 -0.08804684 0.065805435 0.03690085 -0.045232873 -0.043736357 -0.02638404
0.031613786 -0.043728262 0.06379413 -0.027131619 -0.073587336 -0.06287233 0.01879484 0.006458862
-0.00055971224 0.054771893 0.040809035 -0.07334239 -0.026325952 0.03224522 0.04108859 -0.011795687
-0.02383903 0.065508805 -0.054002713 0.02847435 0.012042507 0.009048242 -0.004205181 0.028675908
0.08300174 0.052615035 0.097525336 -0.043687683 0.034100287 0.030234002 -0.023433601 -0.06466783
0.10668588 -0.010666921 -0.0064787297 0.011482749 0.06711234 0.03650912 0.060825415 0.024311902
-0.048435263 0.042629547 0.09052973 0.026317902 0.017526703 -0.080790095 0.094928876 0.027521934
-0.028478535 -0.043437824 -0.09645313 0.027582247 -0.016839363 0.050278734 0.083757415 0.118479796
0.11727747 -0.033503518 0.097802006 -0.087237656 0.0022458602 -0.027103454 -0.018991303 0.023112958
0.048855785 0.04478897 -0.032806464 -0.0093932105 -0.058124922 0.046698347 -0.03934257 -0.02709299
-0.0817045 0.030810008 0.0101458 0.0632654 -0.07954167 -0.08540275 -0.051986646 0.030794563
0.02624844 -0.03720431 -0.0030285523 0.062178213 0.028051512 0.021931231 -0.0057321563 0.0041342042
-0.03213599 -0.06548664 0.012468938 -0.011381918 0.065941 0.0376451 -0.038516812 -0.063180186
-0.065327495 0.025027644 0.07095984 0.07479318 -0.067289725 -0.092331275 0.0580079 -0.043703966
-0.06283985 -0.013385797 0.017047318 0.03298124 -0.05503802 0.025852684 -0.039086968 0.044522524
-0.06380084 -0.008797788 -0.0569775 0.09257653 0.012900075 0.051212765 -0.022037681 0.0050608786
0.0867259 -0.026838508 0.05392332 -0.10697813 -0.03854443 0.02533449 -0.032083467 0.02111105
0.0316051 -0.01604082 -0.016343335 0.03221075 -0.0660434 -0.069502 -0.02758183 -0.01614882
0.022239508 -0.007483874 -0.03931298 0.033565115 -0.041700404 0.06432984 0.0614102 0.060532823
0.062200062 -0.062913306 0.0055801887 0.04397879 -0.06409716 0.08824813 -0.051832225 0.07070654
0.021055786 -0.124644905 -0.057012457 -0.113460265 -0.18419437 0.23420042 -0.044847235 0.05553714
-0.1040366 -0.052448723 -0.08338565 0.12868166 -0.011833637 -0.029455772 -0.031190999 -0.00081069657
0.05353945 0.14426167 0.024371378 0.090857655 0.044518232 0.05957391 -0.058599275 0.018723402
00000000: 4e62 20bd 3a7e 183d 673d 9cbd beff e93b
00000010: a2f8 aa3c a2ea 073d ce52 663d eedb f03d
00000020: 6949 90bd 0621 2b3e 81dd 323d 295f 9dbc
00000030: d61e 333d 6682 59bd 7b38 08bc 41dd 773b
00000040: 2026 8bbd 8245 b33d 5f3c 02bd 2252 35bd
00000050: d4f6 813e f014 d73d 0ec2 91bd ccef 95bc
00000060: 69ca 0b3e d6ea e1bc 229c 08bd 0051 f1bc
00000070: e36f 8e3d 9cda 7dbc ecf2 93bd b1ed e73c
00000080: dd74 b2bd 98e0 ec3b b573 283c a681 15be
00000090: 90b9 4a3e ba0a fd3c 16c9 81bd 3f8f a6bb
000000a0: 83be a1bd 7693 353b f9cf 013e d667 d13c
000000b0: 7476 55bd c44c 7e3d debe 203e cf64 7bbc
000000c0: 8836 61bd 19fa c73c 1b0f 3b3c 60d2 93bb
000000d0: e2ca e2bb 4c90 023c 5e11 31bc dfaa b6bc
000000e0: ca7b 1c3d 97bc abbc a062 13be 132c f53c
000000f0: c614 57bc a8f4 01bc 6314 7d3d 9e91 9bbc
00000100: 6727 dcbc 6865 933c f467 03bd 8f75 8ebd
00000110: 2ca1 e03c 0c16 aa3d 8512 ff3c a3e8 8bbd
00000120: 756e 123d be3c 8a3d e751 b4bd 00c5 863d
00000130: 5825 173d 1b46 39bd e524 33bd 5823 d8bc
00000140: 757d 013d 681c 33bd 7fa6 823d 2143 debc
00000150: f5b4 96bd 35c3 80bd a3f7 993c dda4 d33b
00000160: a7b9 12ba 7e58 603d 6027 273d 8934 96bd
00000170: 86a9 d7bc 9013 043d 824c 283d b242 41bc
00000180: 124a c3bc 7b29 863d f331 5dbd 0a43 e93c
00000190: ef4d 453c 143f 143c 9dcb 89bb bde9 ea3c
000001a0: d1fc a93d dd82 573d 5dbb c73d dbf1 32bd
000001b0: beac 0b3d 4cad f73c d3f7 bfbc 9170 84bd
000001c0: 207e da3d 4fc4 2ebc 864b d4bb 2422 3c3c
000001d0: 3272 893d 968a 153d 1224 793d c129 c73c
000001e0: 0e64 46bd 529c 2e3d a767 b93d a498 d73c
000001f0: 2994 8f3c 4775 a5bd 126a c23d ae75 e13c
00000200: d14b e9bc dceb 31bd 3889 c5bd 2af4 e13c
00000210: b4f2 89bc 13f1 4d3d 0289 ab3d 89a5 f23d
00000220: 2c2f f03d fc3a 09bd 6b4c c83d a8a9 b2bd
00000230: 482f 133b 1008 debc a693 9bbc 6357 bd3c
00000240: 011d 483d a474 373d 1260 06bd fbe5 19bc
00000250: 6614 6ebd c446 3f3d ad25 21bd 1ef2 ddbc
00000260: b054 a7bd 4565 fc3c 923a 263c 4a91 813d
00000270: bee6 a2bd a3e7 aebd f3ef 54bd e144 fc3c
00000280: f806 d73c 8c63 18bd ad7a 46bb 95ae 7e3d
00000290: 49cc e53c 20a9 b33c d0d4 bbbb 3878 873b
000002a0: 07a1 03bd dc1d 86bd 844a 4c3c 397b 3abc
000002b0: 130c 873d c031 1a3d cec3 1dbd 9d64 81bd
000002c0: 6cca 85bd c606 cd3c 6553 913d 2b2d 993d
000002d0: 32cf 89bd 2e18 bdbd b199 6d3d ee02 33bd
000002e0: 2eb2 80bd 1a50 5bbc d1a6 8b3c 5617 073d
000002f0: 8c6f 61bd 02c9 d33c a819 20bd 405d 363d
00000300: 04aa 82bd 9924 10bc 3d61 69bd c498 bd3d
00000310: d65a 533c 7ac4 513d 5e88 b4bc bad5 a53b
00000320: 599d b13d 6edc dbbc b3de 5c3d 5a17 dbbd
00000330: c4e0 1dbd 478a cf3c f469 03bd 15f1 ac3c
00000340: 5974 013d 0a68 83bc 75e2 85bc 6bef 033d
00000350: c341 87bd 1157 8ebd 4af3 e1bc 884a 84bc
00000360: a12f b63c 493b f5bb a606 21bd 937b 093d
00000370: 0bce 2abd 5dbf 833d 4389 7b3d 44f1 773d
00000380: 7ec5 7e3d b1d8 80bd 04da b63b 1b23 343d
00000390: 5f45 83bd 70bb b43d 074e 54bd 97ce 903d
000003a0: 2f7d ac3c d445 ffbd e585 69bd db5d e8bd
000003b0: 739d 3cbe 3cd2 6f3e bcb1 37bd ea7a 633d
000003c0: 2411 d5bd 79d4 56bd 18c6 aabd 20c5 033e
000003d0: dfe1 41bc 3b4d f1bc 4484 ffbc ed84 54ba
000003e0: 2f4c 5b3d 55b9 133e 7ca6 c73c 9413 ba3d
000003f0: c058 363d c603 743d cb05 70bd d261 993c

i2o.bias f4 [59]
0.23113959 -0.15634629 -0.38965353 0.025812976 -0.1633198 -0.09253815 0.18125667 -0.01349187
0.28485447 -0.07066625 0.22743042 0.09294112 -0.27656123 -0.027590126 -0.036261342 -0.15880789
0.13865115 0.30243865 0.08267595 0.03576025 -0.021625828 0.012834101 0.15547729 -0.21292137
-0.47179145 0.23614621 -0.14154476 -0.007597554 -0.14291254 -0.21501073 -0.1745854 -0.03484063
-0.18623695 0.22226577 -0.41450748 -0.13205667 0.3368198 0.028080573 0.15493852 0.12972566
0.4549099 -0.15611203 -0.07013757 0.008503921 -0.07652458 0.2945 0.38833255 -0.44038275
-0.083168715 0.026950091 -0.17776784 -0.34567383 -0.032109424 -0.16036734 0.24032044 -0.15062128
0.2452764 0.16704546 0.33469006
00000000: dbaf 6c3e 3e19 20be ab80 c7be bc75 d33c
00000010: 4e3d 27be a484 bdbd 599b 393e 010d 5dbc
00000020: 72d8 913e 78b9 90bd 85e3 683e ea57 be3d
00000030: 6f99 8dbe b004 e2bc c686 14bd 899e 22be
00000040: 91fa 0d3e 3dd9 9a3e 0252 a93d 5779 123d
00000050: a628 b1bc 1f46 523c 7035 1f3e 0f08 5abe
00000060: a68e f1be 50d0 713e 1cf1 10be e7f4 f8bb
00000070: aa57 12be c62b 5cbe 84c6 32be 0cb5 0ebd
00000080: e6b4 3ebe a399 633e 533a d4be dd39 07be
00000090: a573 ac3e 3b09 e63c 34a8 1e3e ced6 043e
000000a0: f3e9 e83e d5db 1fbe 49a4 8fbd 0854 0b3c
000000b0: ebb8 9cbd b4c8 963e 86d3 c63e d979 e1be
000000c0: 5c54 aabd 70c6 dc3c c608 36be 29fc b0be
000000d0: 2c85 03bd 5637 24be 9016 763e 773c 1abe
000000e0: bd29 7b3e f70d 2b3e 7f5c ab3e

o2o.weight f4 [59, 187]
0.11947877 0.0332655 -0.18114501 0.16213433 -0.35084563 -0.06821773 0.2677077 0.16214614
0.0006380136 0.16488914 0.12674396 -0.30488083 -0.015917638 0.095012784 -0.11020516 0.44803095
-0.14647147 0.29063 0.011666506 0.05205093 0.08927897 0.060454637 0.050655957 0.13780345
0.06949022 0.20493945 -0.118215755 0.03675147 -0.25789037 0.36683467 -0.09559866 -0.34130484
0.10556186 -0.025434203 -0.092184186 -0.21183011 0.15281184 -0.10507752 -0.056884836 -0.18102343
0.006582829 -0.07613987 -0.06309849 0.20929156 0.004017663 -0.16320848 0.14173134 0.23505476
0.1917925 -0.16383834 -0.051301997 0.0018123112 0.28471303 0.029540312 -0.09767045 0.081309065
-0.06493675 0.2489987 -0.0229414 0.19021873 -0.17120948 -0.15256667 0.33209416 -0.18525124
-0.19186503 -0.073658146 -0.17057571 0.085486196 -0.11138853 0.091846414 -0.41518956 0.11511982
-0.20681514 -0.07954654 -0.09807189 -0.31266308 0.03148975 -0.048526365 -0.33795327 -0.024984365
-0.0076875454 -0.112832 -0.16867818 0.18577445 0.18326621 -0.1870006 -0.052370697 0.13561635
-0.009005421 -0.10193833 0.15134996 -0.08839588 -0.18319033 -0.2865389 -0.259303 0.0123331165
0.026491871 0.21491605 0.07990969 -0.12518926 -0.16456787 -0.077755086 -0.10299839 0.18915492
0.027228596 0.018803455 0.030822005 -0.16104423 0.13027918 0.12854162 -0.09712183 0.26569304
0.029721163 -0.05043213 0.11411974 -0.26182693 -0.24087115 0.098829284 -0.13897292 0.2007749
0.16620333 -0.0726516 -0.07395982 0.24267223 -0.10015437 0.059205875 -0.05152798 0.009514117
-0.0010319462 -0.090762295 -0.08419385 -0.02363505 0.020117637 -0.3374049 0.11971778 0.03680352
0.45178723 0.20721853 0.07542385 -0.07522986 -0.05310262 0.048899874 -0.20762399 0.335233
-0.2815901 -0.064292215 -0.04165312 0.060370963 0.06472724 -0.09625981 0.069412604 -0.02294281
0.1530243 0.26903504 -0.14261565 -0.09039906 0.18787855 0.03610584 -0.22443193 -0.14423189
-0.21835802 0.32175097 -0.11836568 -0.07262333 0.08516598 -0.024702387 0.21274059 -0.25173846
-0.043931745 -0.02462243 -0.06797259 -0.03284287 0.14083858 0.34577173 0.1215126 -0.2812899
0.065003656 0.02660232 0.16391703 0.019256424 -0.19400819 -0.17641927 0.14358304 -0.030633392
-0.13719383 0.039175764 -0.09617616 -0.058119174 -0.023321278 0.031590503 -0.016840028 0.00093704095
-0.051427055 0.09557135 -0.028373392 0.07753828 0.076362774 0.009376121 -0.074114524 0.088529214
-0.026682714 -0.01798981 0.0004981881 -0.022897588 0.14537233 0.0012400296 0.046469014 0.00703899
-0.015184383 0.0320799 0.060822453 0.06094452 -0.11878262 0.03312081 -0.013189365 -0.068528235
-0.027018638 -0.06806493 0.12560962 -0.031177761 -0.030860756 0.04681245 0.04499077 -0.12345096
-0.06291785 0.047873553 0.015984995 -0.06192989 0.016894206 -0.102523185 -0.108260706 0.0028618434
0.15232778 -0.048449114 0.060394004 -0.004498197 -0.017545406 -0.10570513 -0.001828026 -0.05229746
0.072848745 -0.025389276 -0.004704867 -0.108034275 -0.10843095 0.0935635 0.031237805 -0.054322243
-0.06497165 8.5363514e-05 0.14088197 -0.005062695 -0.17198603 0.18815571 0.08956859 0.004897859
00000000: 49b1 f43d 6841 083d 147e 39be 8b06 263e
00000010: 0aa2 b3be bdb5 8bbd fc10 893e a309 263e
00000020: 5e40 273a b3d8 283e 2bc9 013e 5719 9cbe
00000030: b565 82bc 1096 c23d 3eb3 e1bd 5064 e53e
00000040: 9efc 15be 75cd 943e df24 3f3c 5b33 553d
00000050: e5d7 b63d 489f 773d 9f7c 4f3d 591c 0d3e
00000060: e350 8e3d a6db 513e 1a1b f2bd b688 163d
00000070: 350a 84be c1d1 bb3e 3bc9 c3bd 82bf aebe
00000080: d130 d83d 645b d0bc 10cb bcbd fee9 58be
00000090: b57a 1c3e e232 d7bd 1300 69bd 355e 39be
000000a0: c6b4 d73b 38ef 9bbd c839 81bd 8750 563e
000000b0: 9aa6 833b 2020 27be 0522 113e 32b2 703e
000000c0: 4165 443e 3dc5 27be 0b22 52bd 138b ed3a
000000d0: e8c5 913e 86fe f13c 7207 c8bd 5e85 a63d
000000e0: 8ffd 84bd 84f9 7e3e 9aef bbbc b3c8 423e
000000f0: 8a51 2fbe 703a 1cbe 3f08 aa3e 80b2 3dbe
00000100: 4478 44be 15da 96bd 66ab 2ebe 6313 af3d
00000110: ab1f e4bd f919 bc3d ba93 d4be f1c3 eb3d
00000120: 59c7 53be 4ce9 a2bd ead9 c8bd 6015 a0be
00000130: 65fb 003d 95c3 46bd 3608 adbe 03ac ccbc
00000140: cee7 fbbb 7714 e7bd f9b9 2cbe a83b 3e3e
00000150: 23aa 3b3e 167d 3fbe a882 56bd 03df 0a3e
00000160: 798b 13bc 0bc5 d0bd 7cfb 1a3e e608 b5bd
00000170: 3f96 3bbe 3ab5 92be 5dc3 84be d710 4a3c
00000180: 7b05 d93c f412 5c3e b1a7 a33d 9d31 00be
00000190: 7b84 28be 0f3e 9fbd d2f0 d2bd d4b1 413e
000001a0: 810e df3c b409 9a3c 6e7e fc3c c7e8 24be
000001b0: e867 053e 6aa0 033e cfe7 c6bd eb08 883e
000001c0: cc79 f33c ec91 4ebd 9cb7 e93d 2e0e 86be
000001d0: eda6 76be 0267 ca3d eb4e 0ebe ef97 4d3e
000001e0: 3531 2a3e 5dca 94bd 3f78 97bd 127f 783e
000001f0: bc1d cdbd dc81 723d 010f 53bd 19e1 1b3c
00000200: 5e42 87ba 95e1 b9bd d36d acbd 4b9e c1bc
00000210: becd a43c 56c0 acbe 982e f53d 4abf 163d
00000220: a850 e73e 1831 543e d277 9a3d 1d12 9abd
00000230: 2282 59bd 3c4b 483d 629b 54be a9a3 ab3e
00000240: 942c 90be a3ab 83bd 769c 2abd 8b47 773d
00000250: b78f 843d dd23 c5bd 3228 8e3d 8ff2 bbbc
00000260: 67b2 1c3e f6be 893e d609 12be 2423 b9bd
00000270: 3c63 403e b8e3 133d 7cd1 65be 86b1 13be
00000280: 3f99 5fbe 8bbc a43e b569 f2bd 8abb 94bd
00000290: 806b ae3d a95c cabc abd8 593e dde3 80be
000002a0: c6f1 33bd fab4 c9bc 3735 8bbd 3f86 06bd
000002b0: fd37 103e fe08 b13e 99db f83d 3b05 90be
000002c0: a320 853d 1ced d93c ded9 273e a6bf 9d3c
000002d0: 15aa 46be 41a7 34be 6f07 133e e1f2 fabc
000002e0: 8a7c 0cbe c476 203d 02f8 c4bd 5f0e 6ebd
000002f0: 440c bfbc 0b65 013d 19f4 89bc c1a3 753a
00000300: 2da5 52bd e9ba c33d 516f e8bc 64cc 9e3d
00000310: 1664 9c3d 4d9e 193c 5bc9 97bd ce4e b53d
00000320: b595 dabc 5e5f 93bc d698 023a b993 bbbc
00000330: 7cdc 143e 7d88 a23a 4b56 3e3d 54a7 e63b
00000340: ebc7 78bc 3766 033d f720 793d f6a0 793d
00000350: 4d44 f3bd b0a9 073d 3518 58bc 8858 8cbd
00000360: 3156 ddbc a065 8bbd cf9f 003e 8168 ffbc
00000370: b2cf fcbc 69be 3f3d 3e48 383d dbd3 fcbd
00000380: 13db 80bd 0f17 443d f7f2 823c 32aa 7dbd
00000390: b865 8a3c adf7 d1bd cab7 ddbd c48d 3b3b
000003a0: d0fb 1b3e 9472 46bd b45f 773d 9d65 93bb
000003b0: 62bb 8fbc ee7b d8bd 609a efba dd35 56bd
000003c0: b931 953d 2cfd cfbc 492b 9abb 1341 ddbd
000003d0: 0c11 debd 389e bf3d 6de6 ff3c 0081 5ebd
000003e0: db0f 85bd 3005 b338 5d43 103e f7e4 a5bb
000003f0: 1b1d 30be e4ab 403e bd6f b73d 387e a03b

o2o.bias f4 [59]
0.5463714 0.013357343 0.18112229 -0.10013929 0.35082278 -0.09387173 0.018327555 0.2055388
0.2618065 -0.18162663 -0.043081347 0.15574543 -0.06742733 0.15488946 0.35807335 -0.12233676
-0.20649345 0.24594499 0.091319226 0.06162041 0.29525423 -0.11954252 -0.093985625 -0.2500422
-0.110927425 -0.042081274 -0.19305928 -0.2035296 -0.26112258 -0.22569874 -0.21170434 -0.17667527
-0.2598498 -0.2131602 -0.22662987 -0.22862807 -0.14561649 -0.16641498 -0.23687987 -0.21565935
-0.27332443 -0.18137747 -0.20626214 -0.18061318 -0.19817376 -0.20829399 -0.2045724 -0.22016446
-0.22452413 -0.28767306 -0.20939025 -0.25739992 -0.17442301 -0.18862914 -0.21637896 -0.20041893
0.18917784 -0.2151643 -0.005076851
00000000: ffde 0b3f c2d8 5a3c 1f78 393e d415 cdbd
00000010: 0b9f b33e d23f c0bd ab23 963c c378 523e
00000020: 800b 863e 55fc 39be 1176 30bd bb7b 1f3e
00000030: 5717 8abd 589b 1e3e 6455 b73e b28b fabd
00000040: 0573 53be 01d9 7b3e 9305 bb3d af65 7c3d
00000050: 902b 973e b5d2 f4bd 897b c0bd 8805 80be
00000060: eb2d e3bd 6a5d 2cbd 55b1 45be 106a 50be
00000070: dcb1 85be 921d 67be 06c9 58be 5dea 34be
00000080: 080b 85be ab46 5abe a911 68be 7a1d 6abe
00000090: 7d1c 15be b068 2abe a390 72be ced5 5cbe
000000a0: 2ef1 8bbe 04bb 39be 6236 53be a9f2 38be
000000b0: 10ee 4abe 054b 55be 6d7b 51be cb72 61be
000000c0: a7e9 65be e249 93be 666a 56be ecc9 83be
000000d0: f29b 32be ff27 41be 7292 5dbe 9f3a 4dbe
000000e0: d6b7 413e 0854 5cbe b75b a6bb
